…
I0713 11:10:56.699051 15285 net.cpp:322] The NetState phase (0) differed from the phase (1) specified by a rule in layer accuracy
I0713 11:10:56.699241 15285 net.cpp:58] Initializing net from parameters: 
name: "CIFAR10_full"
state {
  phase: TRAIN
  level: 0
  stage: ""
}
layer {
  name: "cifar"
  type: "Data"
  top: "data"
  top: "label"
  include {
    phase: TRAIN
  }
  transform_param {
    mean_file: "examples/cifar100_hex/CIFAR-100/mean.binaryproto"
  }
  data_param {
    source: "examples/cifar100_hex/CIFAR-100/CIFAR_train_lmdb"
    batch_size: 100
    backend: LMDB
  }
}
layer {
  name: "conv1"
  type: "Convolution"
  bottom: "data"
  top: "conv1"
  param {
    lr_mult: 1
  }
  param {
    lr_mult: 2
  }
  convolution_param {
    num_output: 32
    pad: 2
    kernel_size: 5
    stride: 1
    weight_filler {
      type: "gaussian"
      std: 0.0001
    }
    bias_filler {
      type: "constant"
    }
  }
}
layer {
  name: "pool1"
  type: "Pooling"
  bottom: "conv1"
  top: "pool1"
  pooling_param {
    pool: MAX
    kernel_size: 3
    stride: 2
  }
}
layer {
  name: "relu1"
  type: "ReLU"
  bottom: "pool1"
  top: "pool1"
}
layer {
  name: "norm1"
  type: "LRN"
  bottom: "pool1"
  top: "norm1"
  lrn_param {
    local_size: 3
    alpha: 5e-05
    beta: 0.75
    norm_region: WITHIN_CHANNEL
  }
}
layer {
  name: "conv2"
  type: "Convolution"
  bottom: "norm1"
  top: "conv2"
  param {
    lr_mult: 1
  }
  param {
    lr_mult: 2
  }
  convolution_param {
    num_output: 32
    pad: 2
    kernel_size: 5
    stride: 1
    weight_filler {
      type: "gaussian"
      std: 0.01
    }
    bias_filler {
      type: "constant"
    }
  }
}
layer {
  name: "relu2"
  type: "ReLU"
  bottom: "conv2"
  top: "conv2"
}
layer {
  name: "pool2"
  type: "Pooling"
  bottom: "conv2"
  top: "pool2"
  pooling_param {
    pool: AVE
    kernel_size: 3
    stride: 2
  }
}
layer {
  name: "norm2"
  type: "LRN"
  bottom: "pool2"
  top: "norm2"
  lrn_param {
    local_size: 3
    alpha: 5e-05
    beta: 0.75
    norm_region: WITHIN_CHANNEL
  }
}
layer {
  name: "conv3"
  type: "Convolution"
  bottom: "norm2"
  top: "conv3"
  convolution_param {
    num_output: 64
    pad: 2
    kernel_size: 5
    stride: 1
    weight_filler {
      type: "gaussian"
      std: 0.01
    }
    bias_filler {
      type: "constant"
    }
  }
}
layer {
  name: "relu3"
  type: "ReLU"
  bottom: "conv3"
  top: "conv3"
}
layer {
  name: "pool3"
  type: "Pooling"
  bottom: "conv3"
  top: "pool3"
  pooling_param {
    pool: AVE
    kernel_size: 3
    stride: 2
  }
}
layer {
  name: "ip1"
  type: "InnerProduct"
  bottom: "pool3"
  top: "ip1"
  param {
    lr_mult: 1
    decay_mult: 250
  }
  param {
    lr_mult: 2
    decay_mult: 0
  }
  inner_product_param {
    num_output: 121
    weight_filler {
      type: "gaussian"
      std: 0.01
    }
    bias_filler {
      type: "constant"
    }
  }
}
layer {
  name: "loss"
  type: "HexLoss"
  bottom: "ip1"
  bottom: "label"
  top: "loss"
  hex_loss_param {
    g_file: "/home/liuyong/method/caffe-hex/examples/cifar100_hex/g_file"
    label_name_file: "/home/liuyong/method/caffe-hex/examples/cifar100_hex/label_name_file"
    node_nums: 121
  }
}
I0713 11:10:56.699419 15285 layer_factory.hpp:77] Creating layer cifar
I0713 11:10:56.700502 15285 net.cpp:100] Creating Layer cifar
I0713 11:10:56.700533 15285 net.cpp:408] cifar -> data
I0713 11:10:56.700606 15285 net.cpp:408] cifar -> label
I0713 11:10:56.700656 15285 data_transformer.cpp:25] Loading mean file from: examples/cifar100_hex/CIFAR-100/mean.binaryproto
I0713 11:10:56.701984 15290 db_lmdb.cpp:35] Opened lmdb examples/cifar100_hex/CIFAR-100/CIFAR_train_lmdb
I0713 11:10:56.748102 15285 data_layer.cpp:41] output data size: 100,3,32,32
I0713 11:10:56.756744 15285 net.cpp:150] Setting up cifar
I0713 11:10:56.756793 15285 net.cpp:157] Top shape: 100 3 32 32 (307200)
I0713 11:10:56.756814 15285 net.cpp:157] Top shape: 100 (100)
I0713 11:10:56.756824 15285 net.cpp:165] Memory required for data: 1229200
I0713 11:10:56.756840 15285 layer_factory.hpp:77] Creating layer conv1
I0713 11:10:56.756882 15285 net.cpp:100] Creating Layer conv1
I0713 11:10:56.756893 15285 net.cpp:434] conv1 <- data
I0713 11:10:56.756918 15285 net.cpp:408] conv1 -> conv1
I0713 11:10:56.759003 15285 net.cpp:150] Setting up conv1
I0713 11:10:56.759101 15285 net.cpp:157] Top shape: 100 32 32 32 (3276800)
I0713 11:10:56.759137 15285 net.cpp:165] Memory required for data: 14336400
I0713 11:10:56.759207 15285 layer_factory.hpp:77] Creating layer pool1
I0713 11:10:56.759266 15285 net.cpp:100] Creating Layer pool1
I0713 11:10:56.759290 15285 net.cpp:434] pool1 <- conv1
I0713 11:10:56.759320 15285 net.cpp:408] pool1 -> pool1
I0713 11:10:56.759562 15285 net.cpp:150] Setting up pool1
I0713 11:10:56.759593 15285 net.cpp:157] Top shape: 100 32 16 16 (819200)
I0713 11:10:56.759613 15285 net.cpp:165] Memory required for data: 17613200
I0713 11:10:56.759637 15285 layer_factory.hpp:77] Creating layer relu1
I0713 11:10:56.759675 15285 net.cpp:100] Creating Layer relu1
I0713 11:10:56.759701 15285 net.cpp:434] relu1 <- pool1
I0713 11:10:56.759737 15285 net.cpp:395] relu1 -> pool1 (in-place)
I0713 11:10:56.759770 15285 net.cpp:150] Setting up relu1
I0713 11:10:56.759783 15285 net.cpp:157] Top shape: 100 32 16 16 (819200)
I0713 11:10:56.759788 15285 net.cpp:165] Memory required for data: 20890000
I0713 11:10:56.759799 15285 layer_factory.hpp:77] Creating layer norm1
I0713 11:10:56.759829 15285 net.cpp:100] Creating Layer norm1
I0713 11:10:56.759850 15285 net.cpp:434] norm1 <- pool1
I0713 11:10:56.759884 15285 net.cpp:408] norm1 -> norm1
I0713 11:10:56.760354 15285 net.cpp:150] Setting up norm1
I0713 11:10:56.760383 15285 net.cpp:157] Top shape: 100 32 16 16 (819200)
I0713 11:10:56.760391 15285 net.cpp:165] Memory required for data: 24166800
I0713 11:10:56.760399 15285 layer_factory.hpp:77] Creating layer conv2
I0713 11:10:56.760423 15285 net.cpp:100] Creating Layer conv2
I0713 11:10:56.760435 15285 net.cpp:434] conv2 <- norm1
I0713 11:10:56.760450 15285 net.cpp:408] conv2 -> conv2
I0713 11:10:56.763700 15285 net.cpp:150] Setting up conv2
I0713 11:10:56.763733 15285 net.cpp:157] Top shape: 100 32 16 16 (819200)
I0713 11:10:56.763748 15285 net.cpp:165] Memory required for data: 27443600
I0713 11:10:56.763779 15285 layer_factory.hpp:77] Creating layer relu2
I0713 11:10:56.763800 15285 net.cpp:100] Creating Layer relu2
I0713 11:10:56.763810 15285 net.cpp:434] relu2 <- conv2
I0713 11:10:56.763825 15285 net.cpp:395] relu2 -> conv2 (in-place)
I0713 11:10:56.763849 15285 net.cpp:150] Setting up relu2
I0713 11:10:56.763866 15285 net.cpp:157] Top shape: 100 32 16 16 (819200)
I0713 11:10:56.763876 15285 net.cpp:165] Memory required for data: 30720400
I0713 11:10:56.763890 15285 layer_factory.hpp:77] Creating layer pool2
I0713 11:10:56.763921 15285 net.cpp:100] Creating Layer pool2
I0713 11:10:56.763933 15285 net.cpp:434] pool2 <- conv2
I0713 11:10:56.763954 15285 net.cpp:408] pool2 -> pool2
I0713 11:10:56.764003 15285 net.cpp:150] Setting up pool2
I0713 11:10:56.764021 15285 net.cpp:157] Top shape: 100 32 8 8 (204800)
I0713 11:10:56.764030 15285 net.cpp:165] Memory required for data: 31539600
I0713 11:10:56.764045 15285 layer_factory.hpp:77] Creating layer norm2
I0713 11:10:56.764061 15285 net.cpp:100] Creating Layer norm2
I0713 11:10:56.764073 15285 net.cpp:434] norm2 <- pool2
I0713 11:10:56.764093 15285 net.cpp:408] norm2 -> norm2
I0713 11:10:56.764338 15285 net.cpp:150] Setting up norm2
I0713 11:10:56.764364 15285 net.cpp:157] Top shape: 100 32 8 8 (204800)
I0713 11:10:56.764377 15285 net.cpp:165] Memory required for data: 32358800
I0713 11:10:56.764389 15285 layer_factory.hpp:77] Creating layer conv3
I0713 11:10:56.764415 15285 net.cpp:100] Creating Layer conv3
I0713 11:10:56.764427 15285 net.cpp:434] conv3 <- norm2
I0713 11:10:56.764446 15285 net.cpp:408] conv3 -> conv3
I0713 11:10:56.767877 15285 net.cpp:150] Setting up conv3
I0713 11:10:56.767899 15285 net.cpp:157] Top shape: 100 64 8 8 (409600)
I0713 11:10:56.767907 15285 net.cpp:165] Memory required for data: 33997200
I0713 11:10:56.767923 15285 layer_factory.hpp:77] Creating layer relu3
I0713 11:10:56.767935 15285 net.cpp:100] Creating Layer relu3
I0713 11:10:56.767943 15285 net.cpp:434] relu3 <- conv3
I0713 11:10:56.767954 15285 net.cpp:395] relu3 -> conv3 (in-place)
I0713 11:10:56.767966 15285 net.cpp:150] Setting up relu3
I0713 11:10:56.767976 15285 net.cpp:157] Top shape: 100 64 8 8 (409600)
I0713 11:10:56.767982 15285 net.cpp:165] Memory required for data: 35635600
I0713 11:10:56.767989 15285 layer_factory.hpp:77] Creating layer pool3
I0713 11:10:56.768002 15285 net.cpp:100] Creating Layer pool3
I0713 11:10:56.768008 15285 net.cpp:434] pool3 <- conv3
I0713 11:10:56.768020 15285 net.cpp:408] pool3 -> pool3
I0713 11:10:56.768064 15285 net.cpp:150] Setting up pool3
I0713 11:10:56.768075 15285 net.cpp:157] Top shape: 100 64 4 4 (102400)
I0713 11:10:56.768082 15285 net.cpp:165] Memory required for data: 36045200
I0713 11:10:56.768090 15285 layer_factory.hpp:77] Creating layer ip1
I0713 11:10:56.768102 15285 net.cpp:100] Creating Layer ip1
I0713 11:10:56.768110 15285 net.cpp:434] ip1 <- pool3
I0713 11:10:56.768122 15285 net.cpp:408] ip1 -> ip1
I0713 11:10:56.775457 15285 net.cpp:150] Setting up ip1
I0713 11:10:56.775478 15285 net.cpp:157] Top shape: 100 121 (12100)
I0713 11:10:56.775517 15285 net.cpp:165] Memory required for data: 36093600
I0713 11:10:56.775534 15285 layer_factory.hpp:77] Creating layer loss
I0713 11:10:56.775554 15285 net.cpp:100] Creating Layer loss
I0713 11:10:56.775563 15285 net.cpp:434] loss <- ip1
I0713 11:10:56.775575 15285 net.cpp:434] loss <- label
I0713 11:10:56.775591 15285 net.cpp:408] loss -> loss
I0713 11:10:56.775712 15285 HEXGraph.cpp:69] apple
…
I0713 11:10:57.056545 15285 net.cpp:322] The NetState phase (1) differed from the phase (0) specified by a rule in layer cifar
I0713 11:10:57.056721 15285 net.cpp:58] Initializing net from parameters: 
name: "CIFAR10_full"
state {
  phase: TEST
}
layer {
  name: "cifar"
  type: "Data"
  top: "data"
  top: "label"
  include {
    phase: TEST
  }
  transform_param {
    mean_file: "examples/cifar100_hex/CIFAR-100/mean.binaryproto"
  }
  data_param {
    source: "examples/cifar100_hex/CIFAR-100/CIFAR_test_lmdb"
    batch_size: 100
    backend: LMDB
  }
}
layer {
  name: "conv1"
  type: "Convolution"
  bottom: "data"
  top: "conv1"
  param {
    lr_mult: 1
  }
  param {
    lr_mult: 2
  }
  convolution_param {
    num_output: 32
    pad: 2
    kernel_size: 5
    stride: 1
    weight_filler {
      type: "gaussian"
      std: 0.0001
    }
    bias_filler {
      type: "constant"
    }
  }
}
layer {
  name: "pool1"
  type: "Pooling"
  bottom: "conv1"
  top: "pool1"
  pooling_param {
    pool: MAX
    kernel_size: 3
    stride: 2
  }
}
layer {
  name: "relu1"
  type: "ReLU"
  bottom: "pool1"
  top: "pool1"
}
layer {
  name: "norm1"
  type: "LRN"
  bottom: "pool1"
  top: "norm1"
  lrn_param {
    local_size: 3
    alpha: 5e-05
    beta: 0.75
    norm_region: WITHIN_CHANNEL
  }
}
layer {
  name: "conv2"
  type: "Convolution"
  bottom: "norm1"
  top: "conv2"
  param {
    lr_mult: 1
  }
  param {
    lr_mult: 2
  }
  convolution_param {
    num_output: 32
    pad: 2
    kernel_size: 5
    stride: 1
    weight_filler {
      type: "gaussian"
      std: 0.01
    }
    bias_filler {
      type: "constant"
    }
  }
}
layer {
  name: "relu2"
  type: "ReLU"
  bottom: "conv2"
  top: "conv2"
}
layer {
  name: "pool2"
  type: "Pooling"
  bottom: "conv2"
  top: "pool2"
  pooling_param {
    pool: AVE
    kernel_size: 3
    stride: 2
  }
}
layer {
  name: "norm2"
  type: "LRN"
  bottom: "pool2"
  top: "norm2"
  lrn_param {
    local_size: 3
    alpha: 5e-05
    beta: 0.75
    norm_region: WITHIN_CHANNEL
  }
}
layer {
  name: "conv3"
  type: "Convolution"
  bottom: "norm2"
  top: "conv3"
  convolution_param {
    num_output: 64
    pad: 2
    kernel_size: 5
    stride: 1
    weight_filler {
      type: "gaussian"
      std: 0.01
    }
    bias_filler {
      type: "constant"
    }
  }
}
layer {
  name: "relu3"
  type: "ReLU"
  bottom: "conv3"
  top: "conv3"
}
layer {
  name: "pool3"
  type: "Pooling"
  bottom: "conv3"
  top: "pool3"
  pooling_param {
    pool: AVE
    kernel_size: 3
    stride: 2
  }
}
layer {
  name: "ip1"
  type: "InnerProduct"
  bottom: "pool3"
  top: "ip1"
  param {
    lr_mult: 1
    decay_mult: 250
  }
  param {
    lr_mult: 2
    decay_mult: 0
  }
  inner_product_param {
    num_output: 121
    weight_filler {
      type: "gaussian"
      std: 0.01
    }
    bias_filler {
      type: "constant"
    }
  }
}
layer {
  name: "accuracy"
  type: "HexAccuracy"
  bottom: "ip1"
  bottom: "label"
  top: "accuracy"
  include {
    phase: TEST
  }
  hex_accuracy_param {
    g_file: "/home/liuyong/method/caffe-hex/examples/cifar100_hex/g_file"
    label_name_file: "/home/liuyong/method/caffe-hex/examples/cifar100_hex/label_name_file"
    node_nums: 121
  }
}
layer {
  name: "loss"
  type: "HexLoss"
  bottom: "ip1"
  bottom: "label"
  top: "loss"
  hex_loss_param {
    g_file: "/home/liuyong/method/caffe-hex/examples/cifar100_hex/g_file"
    label_name_file: "/home/liuyong/method/caffe-hex/examples/cifar100_hex/label_name_file"
    node_nums: 121
  }
}
I0713 11:10:57.056898 15285 layer_factory.hpp:77] Creating layer cifar
I0713 11:10:57.057075 15285 net.cpp:100] Creating Layer cifar
I0713 11:10:57.057126 15285 net.cpp:408] cifar -> data
I0713 11:10:57.057200 15285 net.cpp:408] cifar -> label
I0713 11:10:57.057221 15285 data_transformer.cpp:25] Loading mean file from: examples/cifar100_hex/CIFAR-100/mean.binaryproto
I0713 11:10:57.058930 15293 db_lmdb.cpp:35] Opened lmdb examples/cifar100_hex/CIFAR-100/CIFAR_test_lmdb
I0713 11:10:57.059144 15285 data_layer.cpp:41] output data size: 100,3,32,32
I0713 11:10:57.068908 15285 net.cpp:150] Setting up cifar
I0713 11:10:57.068972 15285 net.cpp:157] Top shape: 100 3 32 32 (307200)
I0713 11:10:57.068984 15285 net.cpp:157] Top shape: 100 (100)
I0713 11:10:57.068990 15285 net.cpp:165] Memory required for data: 1229200
I0713 11:10:57.069015 15285 layer_factory.hpp:77] Creating layer label_cifar_1_split
I0713 11:10:57.069044 15285 net.cpp:100] Creating Layer label_cifar_1_split
I0713 11:10:57.069054 15285 net.cpp:434] label_cifar_1_split <- label
I0713 11:10:57.069070 15285 net.cpp:408] label_cifar_1_split -> label_cifar_1_split_0
I0713 11:10:57.069089 15285 net.cpp:408] label_cifar_1_split -> label_cifar_1_split_1
I0713 11:10:57.069217 15285 net.cpp:150] Setting up label_cifar_1_split
I0713 11:10:57.069232 15285 net.cpp:157] Top shape: 100 (100)
I0713 11:10:57.069242 15285 net.cpp:157] Top shape: 100 (100)
I0713 11:10:57.069247 15285 net.cpp:165] Memory required for data: 1230000
I0713 11:10:57.069255 15285 layer_factory.hpp:77] Creating layer conv1
I0713 11:10:57.069281 15285 net.cpp:100] Creating Layer conv1
I0713 11:10:57.069290 15285 net.cpp:434] conv1 <- data
I0713 11:10:57.069306 15285 net.cpp:408] conv1 -> conv1
I0713 11:10:57.069828 15285 net.cpp:150] Setting up conv1
I0713 11:10:57.069844 15285 net.cpp:157] Top shape: 100 32 32 32 (3276800)
I0713 11:10:57.069854 15285 net.cpp:165] Memory required for data: 14337200
I0713 11:10:57.069880 15285 layer_factory.hpp:77] Creating layer pool1
I0713 11:10:57.069896 15285 net.cpp:100] Creating Layer pool1
I0713 11:10:57.069905 15285 net.cpp:434] pool1 <- conv1
I0713 11:10:57.069916 15285 net.cpp:408] pool1 -> pool1
I0713 11:10:57.069977 15285 net.cpp:150] Setting up pool1
I0713 11:10:57.070027 15285 net.cpp:157] Top shape: 100 32 16 16 (819200)
I0713 11:10:57.070036 15285 net.cpp:165] Memory required for data: 17614000
I0713 11:10:57.070042 15285 layer_factory.hpp:77] Creating layer relu1
I0713 11:10:57.070056 15285 net.cpp:100] Creating Layer relu1
I0713 11:10:57.070065 15285 net.cpp:434] relu1 <- pool1
I0713 11:10:57.070076 15285 net.cpp:395] relu1 -> pool1 (in-place)
I0713 11:10:57.070091 15285 net.cpp:150] Setting up relu1
I0713 11:10:57.070101 15285 net.cpp:157] Top shape: 100 32 16 16 (819200)
I0713 11:10:57.070106 15285 net.cpp:165] Memory required for data: 20890800
I0713 11:10:57.070112 15285 layer_factory.hpp:77] Creating layer norm1
I0713 11:10:57.070123 15285 net.cpp:100] Creating Layer norm1
I0713 11:10:57.070132 15285 net.cpp:434] norm1 <- pool1
I0713 11:10:57.070143 15285 net.cpp:408] norm1 -> norm1
I0713 11:10:57.070294 15285 net.cpp:150] Setting up norm1
I0713 11:10:57.070307 15285 net.cpp:157] Top shape: 100 32 16 16 (819200)
I0713 11:10:57.070315 15285 net.cpp:165] Memory required for data: 24167600
I0713 11:10:57.070322 15285 layer_factory.hpp:77] Creating layer conv2
I0713 11:10:57.070340 15285 net.cpp:100] Creating Layer conv2
I0713 11:10:57.070348 15285 net.cpp:434] conv2 <- norm1
I0713 11:10:57.070358 15285 net.cpp:408] conv2 -> conv2
I0713 11:10:57.072068 15285 net.cpp:150] Setting up conv2
I0713 11:10:57.072088 15285 net.cpp:157] Top shape: 100 32 16 16 (819200)
I0713 11:10:57.072113 15285 net.cpp:165] Memory required for data: 27444400
I0713 11:10:57.072129 15285 layer_factory.hpp:77] Creating layer relu2
I0713 11:10:57.072142 15285 net.cpp:100] Creating Layer relu2
I0713 11:10:57.072151 15285 net.cpp:434] relu2 <- conv2
I0713 11:10:57.072165 15285 net.cpp:395] relu2 -> conv2 (in-place)
I0713 11:10:57.072188 15285 net.cpp:150] Setting up relu2
I0713 11:10:57.072199 15285 net.cpp:157] Top shape: 100 32 16 16 (819200)
I0713 11:10:57.072206 15285 net.cpp:165] Memory required for data: 30721200
I0713 11:10:57.072226 15285 layer_factory.hpp:77] Creating layer pool2
I0713 11:10:57.072239 15285 net.cpp:100] Creating Layer pool2
I0713 11:10:57.072247 15285 net.cpp:434] pool2 <- conv2
I0713 11:10:57.072257 15285 net.cpp:408] pool2 -> pool2
I0713 11:10:57.072306 15285 net.cpp:150] Setting up pool2
I0713 11:10:57.072319 15285 net.cpp:157] Top shape: 100 32 8 8 (204800)
I0713 11:10:57.072334 15285 net.cpp:165] Memory required for data: 31540400
I0713 11:10:57.072340 15285 layer_factory.hpp:77] Creating layer norm2
I0713 11:10:57.072355 15285 net.cpp:100] Creating Layer norm2
I0713 11:10:57.072365 15285 net.cpp:434] norm2 <- pool2
I0713 11:10:57.072376 15285 net.cpp:408] norm2 -> norm2
I0713 11:10:57.072526 15285 net.cpp:150] Setting up norm2
I0713 11:10:57.072554 15285 net.cpp:157] Top shape: 100 32 8 8 (204800)
I0713 11:10:57.072561 15285 net.cpp:165] Memory required for data: 32359600
I0713 11:10:57.072567 15285 layer_factory.hpp:77] Creating layer conv3
I0713 11:10:57.072583 15285 net.cpp:100] Creating Layer conv3
I0713 11:10:57.072592 15285 net.cpp:434] conv3 <- norm2
I0713 11:10:57.072604 15285 net.cpp:408] conv3 -> conv3
I0713 11:10:57.075613 15285 net.cpp:150] Setting up conv3
I0713 11:10:57.075633 15285 net.cpp:157] Top shape: 100 64 8 8 (409600)
I0713 11:10:57.075639 15285 net.cpp:165] Memory required for data: 33998000
I0713 11:10:57.075655 15285 layer_factory.hpp:77] Creating layer relu3
I0713 11:10:57.075670 15285 net.cpp:100] Creating Layer relu3
I0713 11:10:57.075678 15285 net.cpp:434] relu3 <- conv3
I0713 11:10:57.075690 15285 net.cpp:395] relu3 -> conv3 (in-place)
I0713 11:10:57.075702 15285 net.cpp:150] Setting up relu3
I0713 11:10:57.075712 15285 net.cpp:157] Top shape: 100 64 8 8 (409600)
I0713 11:10:57.075719 15285 net.cpp:165] Memory required for data: 35636400
I0713 11:10:57.075726 15285 layer_factory.hpp:77] Creating layer pool3
I0713 11:10:57.075738 15285 net.cpp:100] Creating Layer pool3
I0713 11:10:57.075745 15285 net.cpp:434] pool3 <- conv3
I0713 11:10:57.075758 15285 net.cpp:408] pool3 -> pool3
I0713 11:10:57.075795 15285 net.cpp:150] Setting up pool3
I0713 11:10:57.075830 15285 net.cpp:157] Top shape: 100 64 4 4 (102400)
I0713 11:10:57.075837 15285 net.cpp:165] Memory required for data: 36046000
I0713 11:10:57.075845 15285 layer_factory.hpp:77] Creating layer ip1
I0713 11:10:57.075861 15285 net.cpp:100] Creating Layer ip1
I0713 11:10:57.075875 15285 net.cpp:434] ip1 <- pool3
I0713 11:10:57.075893 15285 net.cpp:408] ip1 -> ip1
I0713 11:10:57.082257 15285 net.cpp:150] Setting up ip1
I0713 11:10:57.082299 15285 net.cpp:157] Top shape: 100 121 (12100)
I0713 11:10:57.082306 15285 net.cpp:165] Memory required for data: 36094400
I0713 11:10:57.082340 15285 layer_factory.hpp:77] Creating layer ip1_ip1_0_split
I0713 11:10:57.082372 15285 net.cpp:100] Creating Layer ip1_ip1_0_split
I0713 11:10:57.082383 15285 net.cpp:434] ip1_ip1_0_split <- ip1
I0713 11:10:57.082397 15285 net.cpp:408] ip1_ip1_0_split -> ip1_ip1_0_split_0
I0713 11:10:57.082413 15285 net.cpp:408] ip1_ip1_0_split -> ip1_ip1_0_split_1
I0713 11:10:57.082496 15285 net.cpp:150] Setting up ip1_ip1_0_split
I0713 11:10:57.082510 15285 net.cpp:157] Top shape: 100 121 (12100)
I0713 11:10:57.082520 15285 net.cpp:157] Top shape: 100 121 (12100)
I0713 11:10:57.082527 15285 net.cpp:165] Memory required for data: 36191200
I0713 11:10:57.082535 15285 layer_factory.hpp:77] Creating layer accuracy
I0713 11:10:57.082587 15285 net.cpp:100] Creating Layer accuracy
I0713 11:10:57.082598 15285 net.cpp:434] accuracy <- ip1_ip1_0_split_0
I0713 11:10:57.082608 15285 net.cpp:434] accuracy <- label_cifar_1_split_0
I0713 11:10:57.082618 15285 net.cpp:408] accuracy -> accuracy
…
