…
I0713 11:06:29.336072 14347 net.cpp:322] The NetState phase (0) differed from the phase (1) specified by a rule in layer accuracy
I0713 11:06:29.336246 14347 net.cpp:58] Initializing net from parameters: 
name: "CIFAR10_full"
state {
  phase: TRAIN
  level: 0
  stage: ""
}
layer {
  name: "cifar"
  type: "Data"
  top: "data"
  top: "label"
  include {
    phase: TRAIN
  }
  transform_param {
    mean_file: "examples/cifar100/CIFAR-100/mean.binaryproto"
  }
  data_param {
    source: "examples/cifar100/CIFAR-100/CIFAR_train_lmdb"
    batch_size: 100
    backend: LMDB
  }
}
layer {
  name: "conv1"
  type: "Convolution"
  bottom: "data"
  top: "conv1"
  param {
    lr_mult: 1
  }
  param {
    lr_mult: 2
  }
  convolution_param {
    num_output: 32
    pad: 2
    kernel_size: 5
    stride: 1
    weight_filler {
      type: "gaussian"
      std: 0.0001
    }
    bias_filler {
      type: "constant"
    }
  }
}
layer {
  name: "pool1"
  type: "Pooling"
  bottom: "conv1"
  top: "pool1"
  pooling_param {
    pool: MAX
    kernel_size: 3
    stride: 2
  }
}
layer {
  name: "relu1"
  type: "ReLU"
  bottom: "pool1"
  top: "pool1"
}
layer {
  name: "norm1"
  type: "LRN"
  bottom: "pool1"
  top: "norm1"
  lrn_param {
    local_size: 3
    alpha: 5e-05
    beta: 0.75
    norm_region: WITHIN_CHANNEL
  }
}
layer {
  name: "conv2"
  type: "Convolution"
  bottom: "norm1"
  top: "conv2"
  param {
    lr_mult: 1
  }
  param {
    lr_mult: 2
  }
  convolution_param {
    num_output: 32
    pad: 2
    kernel_size: 5
    stride: 1
    weight_filler {
      type: "gaussian"
      std: 0.01
    }
    bias_filler {
      type: "constant"
    }
  }
}
layer {
  name: "relu2"
  type: "ReLU"
  bottom: "conv2"
  top: "conv2"
}
layer {
  name: "pool2"
  type: "Pooling"
  bottom: "conv2"
  top: "pool2"
  pooling_param {
    pool: AVE
    kernel_size: 3
    stride: 2
  }
}
layer {
  name: "norm2"
  type: "LRN"
  bottom: "pool2"
  top: "norm2"
  lrn_param {
    local_size: 3
    alpha: 5e-05
    beta: 0.75
    norm_region: WITHIN_CHANNEL
  }
}
layer {
  name: "conv3"
  type: "Convolution"
  bottom: "norm2"
  top: "conv3"
  convolution_param {
    num_output: 64
    pad: 2
    kernel_size: 5
    stride: 1
    weight_filler {
      type: "gaussian"
      std: 0.01
    }
    bias_filler {
      type: "constant"
    }
  }
}
layer {
  name: "relu3"
  type: "ReLU"
  bottom: "conv3"
  top: "conv3"
}
layer {
  name: "pool3"
  type: "Pooling"
  bottom: "conv3"
  top: "pool3"
  pooling_param {
    pool: AVE
    kernel_size: 3
    stride: 2
  }
}
layer {
  name: "ip1"
  type: "InnerProduct"
  bottom: "pool3"
  top: "ip1"
  param {
    lr_mult: 1
    decay_mult: 250
  }
  param {
    lr_mult: 2
    decay_mult: 0
  }
  inner_product_param {
    num_output: 100
    weight_filler {
      type: "gaussian"
      std: 0.01
    }
    bias_filler {
      type: "constant"
    }
  }
}
layer {
  name: "loss"
  type: "SoftmaxWithLoss"
  bottom: "ip1"
  bottom: "label"
  top: "loss"
}
I0713 11:06:29.336366 14347 layer_factory.hpp:77] Creating layer cifar
I0713 11:06:29.337016 14347 net.cpp:100] Creating Layer cifar
I0713 11:06:29.337083 14347 net.cpp:408] cifar -> data
I0713 11:06:29.337158 14347 net.cpp:408] cifar -> label
I0713 11:06:29.337201 14347 data_transformer.cpp:25] Loading mean file from: examples/cifar100/CIFAR-100/mean.binaryproto
I0713 11:06:29.341063 14360 db_lmdb.cpp:35] Opened lmdb examples/cifar100/CIFAR-100/CIFAR_train_lmdb
I0713 11:06:29.356456 14347 data_layer.cpp:41] output data size: 100,3,32,32
I0713 11:06:29.364468 14347 net.cpp:150] Setting up cifar
I0713 11:06:29.364536 14347 net.cpp:157] Top shape: 100 3 32 32 (307200)
I0713 11:06:29.364555 14347 net.cpp:157] Top shape: 100 (100)
I0713 11:06:29.364560 14347 net.cpp:165] Memory required for data: 1229200
I0713 11:06:29.364575 14347 layer_factory.hpp:77] Creating layer conv1
I0713 11:06:29.364609 14347 net.cpp:100] Creating Layer conv1
I0713 11:06:29.364619 14347 net.cpp:434] conv1 <- data
I0713 11:06:29.364639 14347 net.cpp:408] conv1 -> conv1
I0713 11:06:29.365721 14347 net.cpp:150] Setting up conv1
I0713 11:06:29.365741 14347 net.cpp:157] Top shape: 100 32 32 32 (3276800)
I0713 11:06:29.365746 14347 net.cpp:165] Memory required for data: 14336400
I0713 11:06:29.365772 14347 layer_factory.hpp:77] Creating layer pool1
I0713 11:06:29.365787 14347 net.cpp:100] Creating Layer pool1
I0713 11:06:29.365792 14347 net.cpp:434] pool1 <- conv1
I0713 11:06:29.365799 14347 net.cpp:408] pool1 -> pool1
I0713 11:06:29.365876 14347 net.cpp:150] Setting up pool1
I0713 11:06:29.365885 14347 net.cpp:157] Top shape: 100 32 16 16 (819200)
I0713 11:06:29.365890 14347 net.cpp:165] Memory required for data: 17613200
I0713 11:06:29.365895 14347 layer_factory.hpp:77] Creating layer relu1
I0713 11:06:29.365902 14347 net.cpp:100] Creating Layer relu1
I0713 11:06:29.365907 14347 net.cpp:434] relu1 <- pool1
I0713 11:06:29.365913 14347 net.cpp:395] relu1 -> pool1 (in-place)
I0713 11:06:29.365927 14347 net.cpp:150] Setting up relu1
I0713 11:06:29.365936 14347 net.cpp:157] Top shape: 100 32 16 16 (819200)
I0713 11:06:29.365939 14347 net.cpp:165] Memory required for data: 20890000
I0713 11:06:29.365943 14347 layer_factory.hpp:77] Creating layer norm1
I0713 11:06:29.365957 14347 net.cpp:100] Creating Layer norm1
I0713 11:06:29.365962 14347 net.cpp:434] norm1 <- pool1
I0713 11:06:29.365969 14347 net.cpp:408] norm1 -> norm1
I0713 11:06:29.366103 14347 net.cpp:150] Setting up norm1
I0713 11:06:29.366113 14347 net.cpp:157] Top shape: 100 32 16 16 (819200)
I0713 11:06:29.366118 14347 net.cpp:165] Memory required for data: 24166800
I0713 11:06:29.366122 14347 layer_factory.hpp:77] Creating layer conv2
I0713 11:06:29.366135 14347 net.cpp:100] Creating Layer conv2
I0713 11:06:29.366140 14347 net.cpp:434] conv2 <- norm1
I0713 11:06:29.366149 14347 net.cpp:408] conv2 -> conv2
I0713 11:06:29.368309 14347 net.cpp:150] Setting up conv2
I0713 11:06:29.368337 14347 net.cpp:157] Top shape: 100 32 16 16 (819200)
I0713 11:06:29.368355 14347 net.cpp:165] Memory required for data: 27443600
I0713 11:06:29.368373 14347 layer_factory.hpp:77] Creating layer relu2
I0713 11:06:29.368387 14347 net.cpp:100] Creating Layer relu2
I0713 11:06:29.368397 14347 net.cpp:434] relu2 <- conv2
I0713 11:06:29.368412 14347 net.cpp:395] relu2 -> conv2 (in-place)
I0713 11:06:29.368425 14347 net.cpp:150] Setting up relu2
I0713 11:06:29.368434 14347 net.cpp:157] Top shape: 100 32 16 16 (819200)
I0713 11:06:29.368440 14347 net.cpp:165] Memory required for data: 30720400
I0713 11:06:29.368448 14347 layer_factory.hpp:77] Creating layer pool2
I0713 11:06:29.368460 14347 net.cpp:100] Creating Layer pool2
I0713 11:06:29.368468 14347 net.cpp:434] pool2 <- conv2
I0713 11:06:29.368479 14347 net.cpp:408] pool2 -> pool2
I0713 11:06:29.368511 14347 net.cpp:150] Setting up pool2
I0713 11:06:29.368522 14347 net.cpp:157] Top shape: 100 32 8 8 (204800)
I0713 11:06:29.368528 14347 net.cpp:165] Memory required for data: 31539600
I0713 11:06:29.368535 14347 layer_factory.hpp:77] Creating layer norm2
I0713 11:06:29.368554 14347 net.cpp:100] Creating Layer norm2
I0713 11:06:29.368562 14347 net.cpp:434] norm2 <- pool2
I0713 11:06:29.368571 14347 net.cpp:408] norm2 -> norm2
I0713 11:06:29.368737 14347 net.cpp:150] Setting up norm2
I0713 11:06:29.368759 14347 net.cpp:157] Top shape: 100 32 8 8 (204800)
I0713 11:06:29.368768 14347 net.cpp:165] Memory required for data: 32358800
I0713 11:06:29.368775 14347 layer_factory.hpp:77] Creating layer conv3
I0713 11:06:29.368819 14347 net.cpp:100] Creating Layer conv3
I0713 11:06:29.368862 14347 net.cpp:434] conv3 <- norm2
I0713 11:06:29.368880 14347 net.cpp:408] conv3 -> conv3
I0713 11:06:29.370962 14347 net.cpp:150] Setting up conv3
I0713 11:06:29.370983 14347 net.cpp:157] Top shape: 100 64 8 8 (409600)
I0713 11:06:29.370990 14347 net.cpp:165] Memory required for data: 33997200
I0713 11:06:29.371011 14347 layer_factory.hpp:77] Creating layer relu3
I0713 11:06:29.371027 14347 net.cpp:100] Creating Layer relu3
I0713 11:06:29.371037 14347 net.cpp:434] relu3 <- conv3
I0713 11:06:29.371050 14347 net.cpp:395] relu3 -> conv3 (in-place)
I0713 11:06:29.371078 14347 net.cpp:150] Setting up relu3
I0713 11:06:29.371091 14347 net.cpp:157] Top shape: 100 64 8 8 (409600)
I0713 11:06:29.371098 14347 net.cpp:165] Memory required for data: 35635600
I0713 11:06:29.371114 14347 layer_factory.hpp:77] Creating layer pool3
I0713 11:06:29.371127 14347 net.cpp:100] Creating Layer pool3
I0713 11:06:29.371135 14347 net.cpp:434] pool3 <- conv3
I0713 11:06:29.371150 14347 net.cpp:408] pool3 -> pool3
I0713 11:06:29.371191 14347 net.cpp:150] Setting up pool3
I0713 11:06:29.371206 14347 net.cpp:157] Top shape: 100 64 4 4 (102400)
I0713 11:06:29.371212 14347 net.cpp:165] Memory required for data: 36045200
I0713 11:06:29.371220 14347 layer_factory.hpp:77] Creating layer ip1
I0713 11:06:29.371239 14347 net.cpp:100] Creating Layer ip1
I0713 11:06:29.371248 14347 net.cpp:434] ip1 <- pool3
I0713 11:06:29.371261 14347 net.cpp:408] ip1 -> ip1
I0713 11:06:29.377586 14347 net.cpp:150] Setting up ip1
I0713 11:06:29.377635 14347 net.cpp:157] Top shape: 100 100 (10000)
I0713 11:06:29.377643 14347 net.cpp:165] Memory required for data: 36085200
I0713 11:06:29.377676 14347 layer_factory.hpp:77] Creating layer loss
I0713 11:06:29.377697 14347 net.cpp:100] Creating Layer loss
I0713 11:06:29.377708 14347 net.cpp:434] loss <- ip1
I0713 11:06:29.377720 14347 net.cpp:434] loss <- label
I0713 11:06:29.377735 14347 net.cpp:408] loss -> loss
I0713 11:06:29.377761 14347 layer_factory.hpp:77] Creating layer loss
…
I0713 11:06:29.380062 14347 solver.cpp:181] Creating test net (#0) specified by net file: examples/cifar100/cifar10_full_train_test.prototxt
I0713 11:06:29.380132 14347 net.cpp:322] The NetState phase (1) differed from the phase (0) specified by a rule in layer cifar
I0713 11:06:29.380383 14347 net.cpp:58] Initializing net from parameters: 
name: "CIFAR10_full"
state {
  phase: TEST
}
layer {
  name: "cifar"
  type: "Data"
  top: "data"
  top: "label"
  include {
    phase: TEST
  }
  transform_param {
    mean_file: "examples/cifar100/CIFAR-100/mean.binaryproto"
  }
  data_param {
    source: "examples/cifar100/CIFAR-100/CIFAR_test_lmdb"
    batch_size: 100
    backend: LMDB
  }
}
layer {
  name: "conv1"
  type: "Convolution"
  bottom: "data"
  top: "conv1"
  param {
    lr_mult: 1
  }
  param {
    lr_mult: 2
  }
  convolution_param {
    num_output: 32
    pad: 2
    kernel_size: 5
    stride: 1
    weight_filler {
      type: "gaussian"
      std: 0.0001
    }
    bias_filler {
      type: "constant"
    }
  }
}
layer {
  name: "pool1"
  type: "Pooling"
  bottom: "conv1"
  top: "pool1"
  pooling_param {
    pool: MAX
    kernel_size: 3
    stride: 2
  }
}
layer {
  name: "relu1"
  type: "ReLU"
  bottom: "pool1"
  top: "pool1"
}
layer {
  name: "norm1"
  type: "LRN"
  bottom: "pool1"
  top: "norm1"
  lrn_param {
    local_size: 3
    alpha: 5e-05
    beta: 0.75
    norm_region: WITHIN_CHANNEL
  }
}
layer {
  name: "conv2"
  type: "Convolution"
  bottom: "norm1"
  top: "conv2"
  param {
    lr_mult: 1
  }
  param {
    lr_mult: 2
  }
  convolution_param {
    num_output: 32
    pad: 2
    kernel_size: 5
    stride: 1
    weight_filler {
      type: "gaussian"
      std: 0.01
    }
    bias_filler {
      type: "constant"
    }
  }
}
layer {
  name: "relu2"
  type: "ReLU"
  bottom: "conv2"
  top: "conv2"
}
layer {
  name: "pool2"
  type: "Pooling"
  bottom: "conv2"
  top: "pool2"
  pooling_param {
    pool: AVE
    kernel_size: 3
    stride: 2
  }
}
layer {
  name: "norm2"
  type: "LRN"
  bottom: "pool2"
  top: "norm2"
  lrn_param {
    local_size: 3
    alpha: 5e-05
    beta: 0.75
    norm_region: WITHIN_CHANNEL
  }
}
layer {
  name: "conv3"
  type: "Convolution"
  bottom: "norm2"
  top: "conv3"
  convolution_param {
    num_output: 64
    pad: 2
    kernel_size: 5
    stride: 1
    weight_filler {
      type: "gaussian"
      std: 0.01
    }
    bias_filler {
      type: "constant"
    }
  }
}
layer {
  name: "relu3"
  type: "ReLU"
  bottom: "conv3"
  top: "conv3"
}
layer {
  name: "pool3"
  type: "Pooling"
  bottom: "conv3"
  top: "pool3"
  pooling_param {
    pool: AVE
    kernel_size: 3
    stride: 2
  }
}
layer {
  name: "ip1"
  type: "InnerProduct"
  bottom: "pool3"
  top: "ip1"
  param {
    lr_mult: 1
    decay_mult: 250
  }
  param {
    lr_mult: 2
    decay_mult: 0
  }
  inner_product_param {
    num_output: 100
    weight_filler {
      type: "gaussian"
      std: 0.01
    }
    bias_filler {
      type: "constant"
    }
  }
}
layer {
  name: "accuracy"
  type: "Accuracy"
  bottom: "ip1"
  bottom: "label"
  top: "accuracy"
  include {
    phase: TEST
  }
}
layer {
  name: "loss"
  type: "SoftmaxWithLoss"
  bottom: "ip1"
  bottom: "label"
  top: "loss"
}
I0713 11:06:29.380575 14347 layer_factory.hpp:77] Creating layer cifar
I0713 11:06:29.380899 14347 net.cpp:100] Creating Layer cifar
I0713 11:06:29.380925 14347 net.cpp:408] cifar -> data
I0713 11:06:29.380950 14347 net.cpp:408] cifar -> label
I0713 11:06:29.380975 14347 data_transformer.cpp:25] Loading mean file from: examples/cifar100/CIFAR-100/mean.binaryproto
I0713 11:06:29.382299 14362 db_lmdb.cpp:35] Opened lmdb examples/cifar100/CIFAR-100/CIFAR_test_lmdb
I0713 11:06:29.382479 14347 data_layer.cpp:41] output data size: 100,3,32,32
I0713 11:06:29.389628 14347 net.cpp:150] Setting up cifar
I0713 11:06:29.389720 14347 net.cpp:157] Top shape: 100 3 32 32 (307200)
I0713 11:06:29.389734 14347 net.cpp:157] Top shape: 100 (100)
I0713 11:06:29.389741 14347 net.cpp:165] Memory required for data: 1229200
I0713 11:06:29.389755 14347 layer_factory.hpp:77] Creating layer label_cifar_1_split
I0713 11:06:29.389797 14347 net.cpp:100] Creating Layer label_cifar_1_split
I0713 11:06:29.389818 14347 net.cpp:434] label_cifar_1_split <- label
I0713 11:06:29.389843 14347 net.cpp:408] label_cifar_1_split -> label_cifar_1_split_0
I0713 11:06:29.389874 14347 net.cpp:408] label_cifar_1_split -> label_cifar_1_split_1
I0713 11:06:29.389986 14347 net.cpp:150] Setting up label_cifar_1_split
I0713 11:06:29.390003 14347 net.cpp:157] Top shape: 100 (100)
I0713 11:06:29.390012 14347 net.cpp:157] Top shape: 100 (100)
I0713 11:06:29.390074 14347 net.cpp:165] Memory required for data: 1230000
I0713 11:06:29.390090 14347 layer_factory.hpp:77] Creating layer conv1
I0713 11:06:29.390128 14347 net.cpp:100] Creating Layer conv1
I0713 11:06:29.390137 14347 net.cpp:434] conv1 <- data
I0713 11:06:29.390151 14347 net.cpp:408] conv1 -> conv1
I0713 11:06:29.390720 14347 net.cpp:150] Setting up conv1
I0713 11:06:29.390743 14347 net.cpp:157] Top shape: 100 32 32 32 (3276800)
I0713 11:06:29.390753 14347 net.cpp:165] Memory required for data: 14337200
I0713 11:06:29.390774 14347 layer_factory.hpp:77] Creating layer pool1
I0713 11:06:29.390794 14347 net.cpp:100] Creating Layer pool1
I0713 11:06:29.390801 14347 net.cpp:434] pool1 <- conv1
I0713 11:06:29.390816 14347 net.cpp:408] pool1 -> pool1
I0713 11:06:29.390884 14347 net.cpp:150] Setting up pool1
I0713 11:06:29.390923 14347 net.cpp:157] Top shape: 100 32 16 16 (819200)
I0713 11:06:29.390930 14347 net.cpp:165] Memory required for data: 17614000
I0713 11:06:29.390936 14347 layer_factory.hpp:77] Creating layer relu1
I0713 11:06:29.390954 14347 net.cpp:100] Creating Layer relu1
I0713 11:06:29.390966 14347 net.cpp:434] relu1 <- pool1
I0713 11:06:29.390977 14347 net.cpp:395] relu1 -> pool1 (in-place)
I0713 11:06:29.390990 14347 net.cpp:150] Setting up relu1
I0713 11:06:29.391002 14347 net.cpp:157] Top shape: 100 32 16 16 (819200)
I0713 11:06:29.391010 14347 net.cpp:165] Memory required for data: 20890800
I0713 11:06:29.391016 14347 layer_factory.hpp:77] Creating layer norm1
I0713 11:06:29.391036 14347 net.cpp:100] Creating Layer norm1
I0713 11:06:29.391047 14347 net.cpp:434] norm1 <- pool1
I0713 11:06:29.391057 14347 net.cpp:408] norm1 -> norm1
I0713 11:06:29.391872 14347 net.cpp:150] Setting up norm1
I0713 11:06:29.391894 14347 net.cpp:157] Top shape: 100 32 16 16 (819200)
I0713 11:06:29.391902 14347 net.cpp:165] Memory required for data: 24167600
I0713 11:06:29.391911 14347 layer_factory.hpp:77] Creating layer conv2
I0713 11:06:29.391952 14347 net.cpp:100] Creating Layer conv2
I0713 11:06:29.391963 14347 net.cpp:434] conv2 <- norm1
I0713 11:06:29.391976 14347 net.cpp:408] conv2 -> conv2
I0713 11:06:29.393630 14347 net.cpp:150] Setting up conv2
I0713 11:06:29.393666 14347 net.cpp:157] Top shape: 100 32 16 16 (819200)
I0713 11:06:29.393676 14347 net.cpp:165] Memory required for data: 27444400
I0713 11:06:29.393703 14347 layer_factory.hpp:77] Creating layer relu2
I0713 11:06:29.393728 14347 net.cpp:100] Creating Layer relu2
I0713 11:06:29.393738 14347 net.cpp:434] relu2 <- conv2
I0713 11:06:29.393755 14347 net.cpp:395] relu2 -> conv2 (in-place)
I0713 11:06:29.393772 14347 net.cpp:150] Setting up relu2
I0713 11:06:29.393784 14347 net.cpp:157] Top shape: 100 32 16 16 (819200)
I0713 11:06:29.393793 14347 net.cpp:165] Memory required for data: 30721200
I0713 11:06:29.393801 14347 layer_factory.hpp:77] Creating layer pool2
I0713 11:06:29.393824 14347 net.cpp:100] Creating Layer pool2
I0713 11:06:29.393833 14347 net.cpp:434] pool2 <- conv2
I0713 11:06:29.393848 14347 net.cpp:408] pool2 -> pool2
I0713 11:06:29.393887 14347 net.cpp:150] Setting up pool2
I0713 11:06:29.393903 14347 net.cpp:157] Top shape: 100 32 8 8 (204800)
I0713 11:06:29.393910 14347 net.cpp:165] Memory required for data: 31540400
I0713 11:06:29.393918 14347 layer_factory.hpp:77] Creating layer norm2
I0713 11:06:29.394006 14347 net.cpp:100] Creating Layer norm2
I0713 11:06:29.394014 14347 net.cpp:434] norm2 <- pool2
I0713 11:06:29.394032 14347 net.cpp:408] norm2 -> norm2
I0713 11:06:29.394208 14347 net.cpp:150] Setting up norm2
I0713 11:06:29.394230 14347 net.cpp:157] Top shape: 100 32 8 8 (204800)
I0713 11:06:29.394243 14347 net.cpp:165] Memory required for data: 32359600
I0713 11:06:29.394253 14347 layer_factory.hpp:77] Creating layer conv3
I0713 11:06:29.394278 14347 net.cpp:100] Creating Layer conv3
I0713 11:06:29.394289 14347 net.cpp:434] conv3 <- norm2
I0713 11:06:29.394309 14347 net.cpp:408] conv3 -> conv3
I0713 11:06:29.397277 14347 net.cpp:150] Setting up conv3
I0713 11:06:29.397315 14347 net.cpp:157] Top shape: 100 64 8 8 (409600)
I0713 11:06:29.397353 14347 net.cpp:165] Memory required for data: 33998000
I0713 11:06:29.397372 14347 layer_factory.hpp:77] Creating layer relu3
I0713 11:06:29.397387 14347 net.cpp:100] Creating Layer relu3
I0713 11:06:29.397393 14347 net.cpp:434] relu3 <- conv3
I0713 11:06:29.397404 14347 net.cpp:395] relu3 -> conv3 (in-place)
I0713 11:06:29.397418 14347 net.cpp:150] Setting up relu3
I0713 11:06:29.397424 14347 net.cpp:157] Top shape: 100 64 8 8 (409600)
I0713 11:06:29.397428 14347 net.cpp:165] Memory required for data: 35636400
I0713 11:06:29.397433 14347 layer_factory.hpp:77] Creating layer pool3
I0713 11:06:29.397442 14347 net.cpp:100] Creating Layer pool3
I0713 11:06:29.397450 14347 net.cpp:434] pool3 <- conv3
I0713 11:06:29.397460 14347 net.cpp:408] pool3 -> pool3
I0713 11:06:29.397687 14347 net.cpp:150] Setting up pool3
I0713 11:06:29.397727 14347 net.cpp:157] Top shape: 100 64 4 4 (102400)
I0713 11:06:29.397737 14347 net.cpp:165] Memory required for data: 36046000
I0713 11:06:29.397744 14347 layer_factory.hpp:77] Creating layer ip1
I0713 11:06:29.397806 14347 net.cpp:100] Creating Layer ip1
I0713 11:06:29.397835 14347 net.cpp:434] ip1 <- pool3
I0713 11:06:29.397876 14347 net.cpp:408] ip1 -> ip1
I0713 11:06:29.404150 14347 net.cpp:150] Setting up ip1
I0713 11:06:29.404245 14347 net.cpp:157] Top shape: 100 100 (10000)
I0713 11:06:29.404270 14347 net.cpp:165] Memory required for data: 36086000
I0713 11:06:29.404412 14347 layer_factory.hpp:77] Creating layer ip1_ip1_0_split
I0713 11:06:29.404561 14347 net.cpp:100] Creating Layer ip1_ip1_0_split
I0713 11:06:29.404732 14347 net.cpp:434] ip1_ip1_0_split <- ip1
I0713 11:06:29.404858 14347 net.cpp:408] ip1_ip1_0_split -> ip1_ip1_0_split_0
I0713 11:06:29.404994 14347 net.cpp:408] ip1_ip1_0_split -> ip1_ip1_0_split_1
I0713 11:06:29.405195 14347 net.cpp:150] Setting up ip1_ip1_0_split
I0713 11:06:29.405328 14347 net.cpp:157] Top shape: 100 100 (10000)
I0713 11:06:29.405449 14347 net.cpp:157] Top shape: 100 100 (10000)
I0713 11:06:29.405567 14347 net.cpp:165] Memory required for data: 36166000
I0713 11:06:29.405686 14347 layer_factory.hpp:77] Creating layer accuracy
I0713 11:06:29.405827 14347 net.cpp:100] Creating Layer accuracy
I0713 11:06:29.405951 14347 net.cpp:434] accuracy <- ip1_ip1_0_split_0
I0713 11:06:29.406080 14347 net.cpp:434] accuracy <- label_cifar_1_split_0
I0713 11:06:29.406210 14347 net.cpp:408] accuracy -> accuracy
…
