…
I0711 14:03:08.553040  7901 net.cpp:322] The NetState phase (0) differed from the phase (1) specified by a rule in layer accuracy
I0711 14:03:08.553179  7901 net.cpp:58] Initializing net from parameters: 
name: "CIFAR10_quick"
state {
  phase: TRAIN
  level: 0
  stage: ""
}
layer {
  name: "cifar"
  type: "Data"
  top: "data"
  top: "label"
  include {
    phase: TRAIN
  }
  transform_param {
    mean_file: "examples/cifar10/mean.binaryproto"
  }
  data_param {
    source: "examples/cifar10/cifar10_train_lmdb"
    batch_size: 100
    backend: LMDB
  }
}
layer {
  name: "conv1"
  type: "Convolution"
  bottom: "data"
  top: "conv1"
  param {
    lr_mult: 1
  }
  param {
    lr_mult: 2
  }
  convolution_param {
    num_output: 32
    pad: 2
    kernel_size: 5
    stride: 1
    weight_filler {
      type: "gaussian"
      std: 0.0001
    }
    bias_filler {
      type: "constant"
    }
  }
}
layer {
  name: "pool1"
  type: "Pooling"
  bottom: "conv1"
  top: "pool1"
  pooling_param {
    pool: MAX
    kernel_size: 3
    stride: 2
  }
}
layer {
  name: "relu1"
  type: "ReLU"
  bottom: "pool1"
  top: "pool1"
}
layer {
  name: "conv2"
  type: "Convolution"
  bottom: "pool1"
  top: "conv2"
  param {
    lr_mult: 1
  }
  param {
    lr_mult: 2
  }
  convolution_param {
    num_output: 32
    pad: 2
    kernel_size: 5
    stride: 1
    weight_filler {
      type: "gaussian"
      std: 0.01
    }
    bias_filler {
      type: "constant"
    }
  }
}
layer {
  name: "relu2"
  type: "ReLU"
  bottom: "conv2"
  top: "conv2"
}
layer {
  name: "pool2"
  type: "Pooling"
  bottom: "conv2"
  top: "pool2"
  pooling_param {
    pool: AVE
    kernel_size: 3
    stride: 2
  }
}
layer {
  name: "conv3"
  type: "Convolution"
  bottom: "pool2"
  top: "conv3"
  param {
    lr_mult: 1
  }
  param {
    lr_mult: 2
  }
  convolution_param {
    num_output: 64
    pad: 2
    kernel_size: 5
    stride: 1
    weight_filler {
      type: "gaussian"
      std: 0.01
    }
    bias_filler {
      type: "constant"
    }
  }
}
layer {
  name: "relu3"
  type: "ReLU"
  bottom: "conv3"
  top: "conv3"
}
layer {
  name: "pool3"
  type: "Pooling"
  bottom: "conv3"
  top: "pool3"
  pooling_param {
    pool: AVE
    kernel_size: 3
    stride: 2
  }
}
layer {
  name: "ip1"
  type: "InnerProduct"
  bottom: "pool3"
  top: "ip1"
  param {
    lr_mult: 1
  }
  param {
    lr_mult: 2
  }
  inner_product_param {
    num_output: 64
    weight_filler {
      type: "gaussian"
      std: 0.1
    }
    bias_filler {
      type: "constant"
    }
  }
}
layer {
  name: "ip2"
  type: "InnerProduct"
  bottom: "ip1"
  top: "ip2"
  param {
    lr_mult: 1
  }
  param {
    lr_mult: 2
  }
  inner_product_param {
    num_output: 10
    weight_filler {
      type: "gaussian"
      std: 0.1
    }
    bias_filler {
      type: "constant"
    }
  }
}
layer {
  name: "loss"
  type: "SoftmaxWithLoss"
  bottom: "ip2"
  bottom: "label"
  top: "loss"
}
I0711 14:03:08.553314  7901 layer_factory.hpp:77] Creating layer cifar
I0711 14:03:08.554005  7901 net.cpp:100] Creating Layer cifar
I0711 14:03:08.554024  7901 net.cpp:408] cifar -> data
I0711 14:03:08.554056  7901 net.cpp:408] cifar -> label
I0711 14:03:08.554080  7901 data_transformer.cpp:25] Loading mean file from: examples/cifar10/mean.binaryproto
I0711 14:03:08.555676  7905 db_lmdb.cpp:35] Opened lmdb examples/cifar10/cifar10_train_lmdb
I0711 14:03:08.574393  7901 data_layer.cpp:41] output data size: 100,3,32,32
I0711 14:03:08.579279  7901 net.cpp:150] Setting up cifar
I0711 14:03:08.579331  7901 net.cpp:157] Top shape: 100 3 32 32 (307200)
I0711 14:03:08.579344  7901 net.cpp:157] Top shape: 100 (100)
I0711 14:03:08.579350  7901 net.cpp:165] Memory required for data: 1229200
I0711 14:03:08.579365  7901 layer_factory.hpp:77] Creating layer conv1
I0711 14:03:08.579402  7901 net.cpp:100] Creating Layer conv1
I0711 14:03:08.579416  7901 net.cpp:434] conv1 <- data
I0711 14:03:08.579440  7901 net.cpp:408] conv1 -> conv1
I0711 14:03:08.580932  7901 net.cpp:150] Setting up conv1
I0711 14:03:08.580958  7901 net.cpp:157] Top shape: 100 32 32 32 (3276800)
I0711 14:03:08.580966  7901 net.cpp:165] Memory required for data: 14336400
I0711 14:03:08.580991  7901 layer_factory.hpp:77] Creating layer pool1
I0711 14:03:08.581010  7901 net.cpp:100] Creating Layer pool1
I0711 14:03:08.581020  7901 net.cpp:434] pool1 <- conv1
I0711 14:03:08.581034  7901 net.cpp:408] pool1 -> pool1
I0711 14:03:08.581125  7901 net.cpp:150] Setting up pool1
I0711 14:03:08.581143  7901 net.cpp:157] Top shape: 100 32 16 16 (819200)
I0711 14:03:08.581151  7901 net.cpp:165] Memory required for data: 17613200
I0711 14:03:08.581158  7901 layer_factory.hpp:77] Creating layer relu1
I0711 14:03:08.581169  7901 net.cpp:100] Creating Layer relu1
I0711 14:03:08.581176  7901 net.cpp:434] relu1 <- pool1
I0711 14:03:08.581185  7901 net.cpp:395] relu1 -> pool1 (in-place)
I0711 14:03:08.581198  7901 net.cpp:150] Setting up relu1
I0711 14:03:08.581210  7901 net.cpp:157] Top shape: 100 32 16 16 (819200)
I0711 14:03:08.581218  7901 net.cpp:165] Memory required for data: 20890000
I0711 14:03:08.581224  7901 layer_factory.hpp:77] Creating layer conv2
I0711 14:03:08.581246  7901 net.cpp:100] Creating Layer conv2
I0711 14:03:08.581256  7901 net.cpp:434] conv2 <- pool1
I0711 14:03:08.581269  7901 net.cpp:408] conv2 -> conv2
I0711 14:03:08.584189  7901 net.cpp:150] Setting up conv2
I0711 14:03:08.584218  7901 net.cpp:157] Top shape: 100 32 16 16 (819200)
I0711 14:03:08.584225  7901 net.cpp:165] Memory required for data: 24166800
I0711 14:03:08.584242  7901 layer_factory.hpp:77] Creating layer relu2
I0711 14:03:08.584256  7901 net.cpp:100] Creating Layer relu2
I0711 14:03:08.584264  7901 net.cpp:434] relu2 <- conv2
I0711 14:03:08.584275  7901 net.cpp:395] relu2 -> conv2 (in-place)
I0711 14:03:08.584287  7901 net.cpp:150] Setting up relu2
I0711 14:03:08.584319  7901 net.cpp:157] Top shape: 100 32 16 16 (819200)
I0711 14:03:08.584326  7901 net.cpp:165] Memory required for data: 27443600
I0711 14:03:08.584334  7901 layer_factory.hpp:77] Creating layer pool2
I0711 14:03:08.584348  7901 net.cpp:100] Creating Layer pool2
I0711 14:03:08.584357  7901 net.cpp:434] pool2 <- conv2
I0711 14:03:08.584365  7901 net.cpp:408] pool2 -> pool2
I0711 14:03:08.584400  7901 net.cpp:150] Setting up pool2
I0711 14:03:08.584415  7901 net.cpp:157] Top shape: 100 32 8 8 (204800)
I0711 14:03:08.584435  7901 net.cpp:165] Memory required for data: 28262800
I0711 14:03:08.584442  7901 layer_factory.hpp:77] Creating layer conv3
I0711 14:03:08.584462  7901 net.cpp:100] Creating Layer conv3
I0711 14:03:08.584471  7901 net.cpp:434] conv3 <- pool2
I0711 14:03:08.584484  7901 net.cpp:408] conv3 -> conv3
I0711 14:03:08.587672  7901 net.cpp:150] Setting up conv3
I0711 14:03:08.587689  7901 net.cpp:157] Top shape: 100 64 8 8 (409600)
I0711 14:03:08.587697  7901 net.cpp:165] Memory required for data: 29901200
I0711 14:03:08.587713  7901 layer_factory.hpp:77] Creating layer relu3
I0711 14:03:08.587729  7901 net.cpp:100] Creating Layer relu3
I0711 14:03:08.587749  7901 net.cpp:434] relu3 <- conv3
I0711 14:03:08.587772  7901 net.cpp:395] relu3 -> conv3 (in-place)
I0711 14:03:08.587786  7901 net.cpp:150] Setting up relu3
I0711 14:03:08.587795  7901 net.cpp:157] Top shape: 100 64 8 8 (409600)
I0711 14:03:08.587806  7901 net.cpp:165] Memory required for data: 31539600
I0711 14:03:08.587813  7901 layer_factory.hpp:77] Creating layer pool3
I0711 14:03:08.587824  7901 net.cpp:100] Creating Layer pool3
I0711 14:03:08.587859  7901 net.cpp:434] pool3 <- conv3
I0711 14:03:08.587873  7901 net.cpp:408] pool3 -> pool3
I0711 14:03:08.587918  7901 net.cpp:150] Setting up pool3
I0711 14:03:08.587929  7901 net.cpp:157] Top shape: 100 64 4 4 (102400)
I0711 14:03:08.587936  7901 net.cpp:165] Memory required for data: 31949200
I0711 14:03:08.587942  7901 layer_factory.hpp:77] Creating layer ip1
I0711 14:03:08.587961  7901 net.cpp:100] Creating Layer ip1
I0711 14:03:08.587970  7901 net.cpp:434] ip1 <- pool3
I0711 14:03:08.587983  7901 net.cpp:408] ip1 -> ip1
I0711 14:03:08.591734  7901 net.cpp:150] Setting up ip1
I0711 14:03:08.591753  7901 net.cpp:157] Top shape: 100 64 (6400)
I0711 14:03:08.591759  7901 net.cpp:165] Memory required for data: 31974800
I0711 14:03:08.591769  7901 layer_factory.hpp:77] Creating layer ip2
I0711 14:03:08.591784  7901 net.cpp:100] Creating Layer ip2
I0711 14:03:08.591794  7901 net.cpp:434] ip2 <- ip1
I0711 14:03:08.591804  7901 net.cpp:408] ip2 -> ip2
I0711 14:03:08.592005  7901 net.cpp:150] Setting up ip2
I0711 14:03:08.592018  7901 net.cpp:157] Top shape: 100 10 (1000)
I0711 14:03:08.592025  7901 net.cpp:165] Memory required for data: 31978800
I0711 14:03:08.592039  7901 layer_factory.hpp:77] Creating layer loss
I0711 14:03:08.592053  7901 net.cpp:100] Creating Layer loss
I0711 14:03:08.592062  7901 net.cpp:434] loss <- ip2
I0711 14:03:08.592070  7901 net.cpp:434] loss <- label
I0711 14:03:08.592082  7901 net.cpp:408] loss -> loss
I0711 14:03:08.592099  7901 layer_factory.hpp:77] Creating layer loss
…
I0711 14:03:08.593228  7901 solver.cpp:181] Creating test net (#0) specified by net file: examples/cifar10/cifar10_quick_train_test.prototxt
I0711 14:03:08.593286  7901 net.cpp:322] The NetState phase (1) differed from the phase (0) specified by a rule in layer cifar
I0711 14:03:08.593510  7901 net.cpp:58] Initializing net from parameters: 
name: "CIFAR10_quick"
state {
  phase: TEST
}
layer {
  name: "cifar"
  type: "Data"
  top: "data"
  top: "label"
  include {
    phase: TEST
  }
  transform_param {
    mean_file: "examples/cifar10/mean.binaryproto"
  }
  data_param {
    source: "examples/cifar10/cifar10_test_lmdb"
    batch_size: 100
    backend: LMDB
  }
}
layer {
  name: "conv1"
  type: "Convolution"
  bottom: "data"
  top: "conv1"
  param {
    lr_mult: 1
  }
  param {
    lr_mult: 2
  }
  convolution_param {
    num_output: 32
    pad: 2
    kernel_size: 5
    stride: 1
    weight_filler {
      type: "gaussian"
      std: 0.0001
    }
    bias_filler {
      type: "constant"
    }
  }
}
layer {
  name: "pool1"
  type: "Pooling"
  bottom: "conv1"
  top: "pool1"
  pooling_param {
    pool: MAX
    kernel_size: 3
    stride: 2
  }
}
layer {
  name: "relu1"
  type: "ReLU"
  bottom: "pool1"
  top: "pool1"
}
layer {
  name: "conv2"
  type: "Convolution"
  bottom: "pool1"
  top: "conv2"
  param {
    lr_mult: 1
  }
  param {
    lr_mult: 2
  }
  convolution_param {
    num_output: 32
    pad: 2
    kernel_size: 5
    stride: 1
    weight_filler {
      type: "gaussian"
      std: 0.01
    }
    bias_filler {
      type: "constant"
    }
  }
}
layer {
  name: "relu2"
  type: "ReLU"
  bottom: "conv2"
  top: "conv2"
}
layer {
  name: "pool2"
  type: "Pooling"
  bottom: "conv2"
  top: "pool2"
  pooling_param {
    pool: AVE
    kernel_size: 3
    stride: 2
  }
}
layer {
  name: "conv3"
  type: "Convolution"
  bottom: "pool2"
  top: "conv3"
  param {
    lr_mult: 1
  }
  param {
    lr_mult: 2
  }
  convolution_param {
    num_output: 64
    pad: 2
    kernel_size: 5
    stride: 1
    weight_filler {
      type: "gaussian"
      std: 0.01
    }
    bias_filler {
      type: "constant"
    }
  }
}
layer {
  name: "relu3"
  type: "ReLU"
  bottom: "conv3"
  top: "conv3"
}
layer {
  name: "pool3"
  type: "Pooling"
  bottom: "conv3"
  top: "pool3"
  pooling_param {
    pool: AVE
    kernel_size: 3
    stride: 2
  }
}
layer {
  name: "ip1"
  type: "InnerProduct"
  bottom: "pool3"
  top: "ip1"
  param {
    lr_mult: 1
  }
  param {
    lr_mult: 2
  }
  inner_product_param {
    num_output: 64
    weight_filler {
      type: "gaussian"
      std: 0.1
    }
    bias_filler {
      type: "constant"
    }
  }
}
layer {
  name: "ip2"
  type: "InnerProduct"
  bottom: "ip1"
  top: "ip2"
  param {
    lr_mult: 1
  }
  param {
    lr_mult: 2
  }
  inner_product_param {
    num_output: 10
    weight_filler {
      type: "gaussian"
      std: 0.1
    }
    bias_filler {
      type: "constant"
    }
  }
}
layer {
  name: "accuracy"
  type: "Accuracy"
  bottom: "ip2"
  bottom: "label"
  top: "accuracy"
  include {
    phase: TEST
  }
}
layer {
  name: "loss"
  type: "SoftmaxWithLoss"
  bottom: "ip2"
  bottom: "label"
  top: "loss"
}
I0711 14:03:08.593679  7901 layer_factory.hpp:77] Creating layer cifar
I0711 14:03:08.593868  7901 net.cpp:100] Creating Layer cifar
I0711 14:03:08.593889  7901 net.cpp:408] cifar -> data
I0711 14:03:08.593909  7901 net.cpp:408] cifar -> label
I0711 14:03:08.593924  7901 data_transformer.cpp:25] Loading mean file from: examples/cifar10/mean.binaryproto
I0711 14:03:08.595299  7907 db_lmdb.cpp:35] Opened lmdb examples/cifar10/cifar10_test_lmdb
I0711 14:03:08.595491  7901 data_layer.cpp:41] output data size: 100,3,32,32
I0711 14:03:08.600476  7901 net.cpp:150] Setting up cifar
I0711 14:03:08.600503  7901 net.cpp:157] Top shape: 100 3 32 32 (307200)
I0711 14:03:08.600514  7901 net.cpp:157] Top shape: 100 (100)
I0711 14:03:08.600520  7901 net.cpp:165] Memory required for data: 1229200
I0711 14:03:08.600530  7901 layer_factory.hpp:77] Creating layer label_cifar_1_split
I0711 14:03:08.600551  7901 net.cpp:100] Creating Layer label_cifar_1_split
I0711 14:03:08.600559  7901 net.cpp:434] label_cifar_1_split <- label
I0711 14:03:08.600569  7901 net.cpp:408] label_cifar_1_split -> label_cifar_1_split_0
I0711 14:03:08.600587  7901 net.cpp:408] label_cifar_1_split -> label_cifar_1_split_1
I0711 14:03:08.600692  7901 net.cpp:150] Setting up label_cifar_1_split
I0711 14:03:08.600706  7901 net.cpp:157] Top shape: 100 (100)
I0711 14:03:08.600713  7901 net.cpp:157] Top shape: 100 (100)
I0711 14:03:08.600723  7901 net.cpp:165] Memory required for data: 1230000
I0711 14:03:08.600728  7901 layer_factory.hpp:77] Creating layer conv1
I0711 14:03:08.600754  7901 net.cpp:100] Creating Layer conv1
I0711 14:03:08.600762  7901 net.cpp:434] conv1 <- data
I0711 14:03:08.600776  7901 net.cpp:408] conv1 -> conv1
I0711 14:03:08.601289  7901 net.cpp:150] Setting up conv1
I0711 14:03:08.601303  7901 net.cpp:157] Top shape: 100 32 32 32 (3276800)
I0711 14:03:08.601310  7901 net.cpp:165] Memory required for data: 14337200
I0711 14:03:08.601328  7901 layer_factory.hpp:77] Creating layer pool1
I0711 14:03:08.601338  7901 net.cpp:100] Creating Layer pool1
I0711 14:03:08.601363  7901 net.cpp:434] pool1 <- conv1
I0711 14:03:08.601377  7901 net.cpp:408] pool1 -> pool1
I0711 14:03:08.601439  7901 net.cpp:150] Setting up pool1
I0711 14:03:08.601454  7901 net.cpp:157] Top shape: 100 32 16 16 (819200)
I0711 14:03:08.601460  7901 net.cpp:165] Memory required for data: 17614000
I0711 14:03:08.601466  7901 layer_factory.hpp:77] Creating layer relu1
I0711 14:03:08.601477  7901 net.cpp:100] Creating Layer relu1
I0711 14:03:08.601485  7901 net.cpp:434] relu1 <- pool1
I0711 14:03:08.601493  7901 net.cpp:395] relu1 -> pool1 (in-place)
I0711 14:03:08.601505  7901 net.cpp:150] Setting up relu1
I0711 14:03:08.601514  7901 net.cpp:157] Top shape: 100 32 16 16 (819200)
I0711 14:03:08.601522  7901 net.cpp:165] Memory required for data: 20890800
I0711 14:03:08.601528  7901 layer_factory.hpp:77] Creating layer conv2
I0711 14:03:08.601544  7901 net.cpp:100] Creating Layer conv2
I0711 14:03:08.601553  7901 net.cpp:434] conv2 <- pool1
I0711 14:03:08.601565  7901 net.cpp:408] conv2 -> conv2
I0711 14:03:08.603276  7901 net.cpp:150] Setting up conv2
I0711 14:03:08.603291  7901 net.cpp:157] Top shape: 100 32 16 16 (819200)
I0711 14:03:08.603297  7901 net.cpp:165] Memory required for data: 24167600
I0711 14:03:08.603312  7901 layer_factory.hpp:77] Creating layer relu2
I0711 14:03:08.603332  7901 net.cpp:100] Creating Layer relu2
I0711 14:03:08.603341  7901 net.cpp:434] relu2 <- conv2
I0711 14:03:08.603358  7901 net.cpp:395] relu2 -> conv2 (in-place)
I0711 14:03:08.603370  7901 net.cpp:150] Setting up relu2
I0711 14:03:08.603380  7901 net.cpp:157] Top shape: 100 32 16 16 (819200)
I0711 14:03:08.603386  7901 net.cpp:165] Memory required for data: 27444400
I0711 14:03:08.603394  7901 layer_factory.hpp:77] Creating layer pool2
I0711 14:03:08.603401  7901 net.cpp:100] Creating Layer pool2
I0711 14:03:08.603410  7901 net.cpp:434] pool2 <- conv2
I0711 14:03:08.603418  7901 net.cpp:408] pool2 -> pool2
I0711 14:03:08.603447  7901 net.cpp:150] Setting up pool2
I0711 14:03:08.603458  7901 net.cpp:157] Top shape: 100 32 8 8 (204800)
I0711 14:03:08.603483  7901 net.cpp:165] Memory required for data: 28263600
I0711 14:03:08.603488  7901 layer_factory.hpp:77] Creating layer conv3
I0711 14:03:08.603509  7901 net.cpp:100] Creating Layer conv3
I0711 14:03:08.603518  7901 net.cpp:434] conv3 <- pool2
I0711 14:03:08.603528  7901 net.cpp:408] conv3 -> conv3
I0711 14:03:08.606318  7901 net.cpp:150] Setting up conv3
I0711 14:03:08.606333  7901 net.cpp:157] Top shape: 100 64 8 8 (409600)
I0711 14:03:08.606341  7901 net.cpp:165] Memory required for data: 29902000
I0711 14:03:08.606360  7901 layer_factory.hpp:77] Creating layer relu3
I0711 14:03:08.606370  7901 net.cpp:100] Creating Layer relu3
I0711 14:03:08.606389  7901 net.cpp:434] relu3 <- conv3
I0711 14:03:08.606400  7901 net.cpp:395] relu3 -> conv3 (in-place)
I0711 14:03:08.606412  7901 net.cpp:150] Setting up relu3
I0711 14:03:08.606428  7901 net.cpp:157] Top shape: 100 64 8 8 (409600)
I0711 14:03:08.606436  7901 net.cpp:165] Memory required for data: 31540400
I0711 14:03:08.606444  7901 layer_factory.hpp:77] Creating layer pool3
I0711 14:03:08.606452  7901 net.cpp:100] Creating Layer pool3
I0711 14:03:08.606458  7901 net.cpp:434] pool3 <- conv3
I0711 14:03:08.606467  7901 net.cpp:408] pool3 -> pool3
I0711 14:03:08.606505  7901 net.cpp:150] Setting up pool3
I0711 14:03:08.606516  7901 net.cpp:157] Top shape: 100 64 4 4 (102400)
I0711 14:03:08.606523  7901 net.cpp:165] Memory required for data: 31950000
I0711 14:03:08.606542  7901 layer_factory.hpp:77] Creating layer ip1
I0711 14:03:08.606555  7901 net.cpp:100] Creating Layer ip1
I0711 14:03:08.606570  7901 net.cpp:434] ip1 <- pool3
I0711 14:03:08.606581  7901 net.cpp:408] ip1 -> ip1
I0711 14:03:08.610687  7901 net.cpp:150] Setting up ip1
I0711 14:03:08.610713  7901 net.cpp:157] Top shape: 100 64 (6400)
I0711 14:03:08.610723  7901 net.cpp:165] Memory required for data: 31975600
I0711 14:03:08.610733  7901 layer_factory.hpp:77] Creating layer ip2
I0711 14:03:08.610747  7901 net.cpp:100] Creating Layer ip2
I0711 14:03:08.610756  7901 net.cpp:434] ip2 <- ip1
I0711 14:03:08.610785  7901 net.cpp:408] ip2 -> ip2
I0711 14:03:08.610978  7901 net.cpp:150] Setting up ip2
I0711 14:03:08.610991  7901 net.cpp:157] Top shape: 100 10 (1000)
I0711 14:03:08.610996  7901 net.cpp:165] Memory required for data: 31979600
I0711 14:03:08.611011  7901 layer_factory.hpp:77] Creating layer ip2_ip2_0_split
I0711 14:03:08.611026  7901 net.cpp:100] Creating Layer ip2_ip2_0_split
I0711 14:03:08.611033  7901 net.cpp:434] ip2_ip2_0_split <- ip2
I0711 14:03:08.611042  7901 net.cpp:408] ip2_ip2_0_split -> ip2_ip2_0_split_0
I0711 14:03:08.611052  7901 net.cpp:408] ip2_ip2_0_split -> ip2_ip2_0_split_1
I0711 14:03:08.611105  7901 net.cpp:150] Setting up ip2_ip2_0_split
I0711 14:03:08.611115  7901 net.cpp:157] Top shape: 100 10 (1000)
I0711 14:03:08.611124  7901 net.cpp:157] Top shape: 100 10 (1000)
I0711 14:03:08.611129  7901 net.cpp:165] Memory required for data: 31987600
I0711 14:03:08.611135  7901 layer_factory.hpp:77] Creating layer accuracy
I0711 14:03:08.611153  7901 net.cpp:100] Creating Layer accuracy
I0711 14:03:08.611161  7901 net.cpp:434] accuracy <- ip2_ip2_0_split_0
I0711 14:03:08.611169  7901 net.cpp:434] accuracy <- label_cifar_1_split_0
I0711 14:03:08.611178  7901 net.cpp:408] accuracy -> accuracy
…
